project1-navigation/model.pth (torch_old, 28417 bytes, 6 tensors)

fc1.weight f4 [64, 37]
0	0x3ca89338	0.020578012
1	0x3ced1b67	0.02894373
2	0xbd986de4	-0.07442835
3	0xbe7b2c9e	-0.24528739
4	0xbd4345c2	-0.047673948
5	0xbd9b6aa4	-0.075886995
6	0x3cec3bf1	0.028837176
7	0x3e4ab70f	0.19796394
8	0xbe504773	-0.20339756
9	0x3d8d7f94	0.06909099
10	0x3e234c90	0.15947175
11	0xbe9937f2	-0.29925495
12	0xbe500504	-0.20314413
13	0xbe99472e	-0.29937118
14	0xbfae43e7	-1.3614472
15	0x3d88734c	0.06662616
16	0x3db06554	0.08613077
17	0x3dbf2f7a	0.09335227
18	0xbe47b426	-0.19502315
19	0x3b50f049	0.0031881502
20	0x3d11ecae	0.035626106
21	0x3e036836	0.12832722
22	0x3c6d3372	0.014477598
23	0x3e0bf922	0.13669255
24	0xbebfba7f	-0.37446973
25	0xbe6c5646	-0.23079786
26	0x3dcdf5fe	0.10056685
27	0x3e2e57e7	0.1702572
28	0xbe2ce834	-0.16885453
29	0x3dc68068	0.0969246
30	0xbe477b8c	-0.19480723
31	0x3e121c97	0.14268719
32	0x3b8a1f3f	0.0042151506
33	0xbdde9fc2	-0.10870315
34	0xbd03f28a	-0.032213725
35	0xbd8f09a0	-0.06984258
36	0xbc24d521	-0.0100605795
37	0x3d5eea2b	0.05442254
38	0x3e0a5e96	0.13512644
39	0x3d0f1766	0.034934424
40	0x3e391626	0.18074855
41	0x3d9e9f52	0.07745232
42	0x3e07a921	0.13248111
43	0xbe350e84	-0.17681319
44	0xbe33c691	-0.17556216
45	0xbe483fee	-0.19555637
46	0xbec116e7	-0.37712786
47	0x3db4ba43	0.08824589
48	0xbd90c9f8	-0.070697725
49	0xbd0a9f54	-0.033843353
50	0x3e6750d4	0.22589427
51	0x3d627102	0.055283554
52	0x3e3d6cb7	0.18498503
53	0x3d2bf017	0.041977014
54	0xbdbc1362	-0.091833845
55	0x3c7dbb87	0.0154866045
56	0xbe13d040	-0.1443491
57	0xbd9fe97f	-0.07808208
58	0xbdf53db5	-0.1197466
59	0xbde239c0	-0.11046171
60	0x3dbbb8a2	0.09166075
61	0x3d03ec6a	0.032207884
62	0xbd05a5f0	-0.032628953
63	0x3e662f64	0.22479016
64	0xbde1c65b	-0.110241614
65	0x3bafa0c9	0.0053597433
66	0x3dbc7b79	0.09203238
67	0x3d910e9f	0.07082867
68	0x3e0a666d	0.13515635
69	0x3e4fc22c	0.20288914
70	0xbda2f115	-0.07956139
71	0xbd3c4936	-0.045968257
72	0x3dcc44e9	0.09974081
73	0x3d59a103	0.05313207
74	0x3cbd5c71	0.023115369
75	0x3e6032bb	0.21894352
76	0xbd84fc69	-0.06493456
77	0xbcbf2ae2	-0.023335878
78	0x3e0b53fb	0.13606255
79	0xbeaf3b53	-0.34224948
80	0xbd7462a9	-0.059664402
81	0x3e69e5bc	0.22841543
82	0x3c0d7578	0.008633964
83	0xbd842cab	-0.06453832
84	0x3d607bbf	0.054805513
85	0xbd4edeb7	-0.050505366
86	0xbe4522cb	-0.19251554
87	0x3e481892	0.19540623
88	0xbcdc565f	-0.026896654
89	0xbe2d9bc5	-0.16953953
90	0x3bc426d8	0.005986076
91	0x3dced08f	0.10098373
92	0xbe6db30c	-0.23212832
93	0x3eb9e51d	0.36307612
94	0xbe093193	-0.13397817
95	0xbe796185	-0.24353607
96	0x3e8de69e	0.2771501
97	0xbe31c8da	-0.17361775
98	0xbdcc5aea	-0.09978278
99	0xbe615b34	-0.22007447
100	0x3e5e3e1f	0.21703385
101	0x3d7ca756	0.06168302
102	0xbd5ecffc	-0.054397568
103	0xbe09aa0e	-0.13443777
104	0xbeb6bc4a	-0.35690528
105	0xbe00decb	-0.12584989
106	0xbd0646e0	-0.032782435
107	0x3d3b09d3	0.045663666
108	0xbd437b15	-0.047724802
109	0x3da476d9	0.08030481
110	0xbd45717e	-0.048203938
111	0xbdcff5a9	-0.10154278
112	0x3df57f45	0.11987165
113	0x3e14c0f3	0.1452673
114	0x3dc9edde	0.09859823
115	0xbe89bdc0	-0.2690258
116	0xbe310dca	-0.17290416
117	0xbdb0768c	-0.08616361
118	0x3b9e3d7c	0.004829107
119	0x3eb6ef04	0.3572923
120	0x3d95f5a3	0.07322242
121	0x3d6b276c	0.057410643
122	0xbde95223	-0.113926195
123	0x3d7b6507	0.061375644
124	0xbdfbcc7e	-0.12294863
125	0xbd97668f	-0.073926084
126	0xbdcae328	-0.09906608
127	0xbdea8afd	-0.11452291
128	0x3d1cc750	0.038276017
129	0xbe3c854a	-0.1841022
130	0xbf05fa87	-0.523354
131	0x3e1a070d	0.15041752
132	0xbe969b59	-0.29415396
133	0xbd365d98	-0.04452285
134	0x3dab5165	0.08365134
135	0xbf2aa09e	-0.6665133
136	0xbd9a541d	-0.075355746
137	0x3d74e37d	0.059787262
138	0x3db839b9	0.08995385
139	0xbc5c40a5	-0.013443147
140	0x3e3218e3	0.17392306
141	0xbd6c2deb	-0.05766098
142	0x3e6f5309	0.23371519
143	0x3dec09ed	0.11525331
144	0xbe074efa	-0.13213721
145	0x3e0f13d2	0.13972405
146	0x3e0d58f8	0.1380347
147	0x3c1fd483	0.009755257
148	0xbd81fc1f	-0.063469164
149	0xbe1ec31c	-0.15504116
150	0xbe52fb07	-0.20603572
151	0xbcf5688a	-0.029957075
152	0x3e0fc8b6	0.14041409
153	0x3d4ce83f	0.050026175
154	0x3e3b9a0c	0.18320483
155	0xbd68dcc9	-0.056851182
156	0xbd76d6ee	-0.060263567
157	0xbe0024e9	-0.1251408
158	0x3e16c836	0.14724812
159	0xbd8f0a58	-0.06984395
160	0xbe408b5a	-0.18803158
161	0xbe361b19	-0.17783774
162	0xbee78402	-0.452179
163	0xbe5e76e9	-0.21725048
164	0x3d945a1f	0.07243752
165	0x3c9c912e	0.019112196
166	0xbda15b93	-0.078787945
167	0x3e1ab7e3	0.1510921
168	0xbd2c15c6	-0.042012952
169	0xbea1abff	-0.31576535
170	0x3d90d37e	0.07071589
171	0x3e67e2e0	0.2264514
172	0x3ec830bf	0.3909969
173	0xbd540338	-0.051760882
174	0xbd0fc391	-0.035098616
175	0x3db97041	0.09054614
176	0x3dbbecc5	0.091760196
177	0x3d366b57	0.04453596
178	0x3e2500dc	0.16113609
179	0xbdee8210	-0.11645901
180	0xbc287d40	-0.010283768
181	0x3baa5d99	0.005199146
182	0x3e943d04	0.289528
183	0xbc490014	-0.012268085
184	0x3b58957c	0.0033048084
185	0x3c3173db	0.010830845
186	0xbdc27327	-0.0949462
187	0x3dd3522d	0.10318408
188	0x3dbc8eb1	0.09206904
189	0x3e25f188	0.16205418
190	0x3eb38bb5	0.35067526
191	0xbe5cab72	-0.21549776
192	0xbe6617c3	-0.22470002
193	0xbed66a24	-0.41877854
194	0xbfd2a044	-1.6455159
195	0xbd691d6f	-0.056912836
196	0x3c740933	0.014894771
197	0xbbb9bf85	-0.005668583
198	0xbd863a3d	-0.06554077
199	0xbc88aebe	-0.016684886
200	0x3c385706	0.011251217
201	0x3df0a654	0.117504746
202	0xbd8c07f1	-0.06837452
203	0x3b4b9a0e	0.0031067166
204	0x3d123f15	0.03570469
205	0x3d974b8e	0.07387458
206	0x3dc193e5	0.09452037
207	0x3e2e5685	0.17025192
208	0x3debed4b	0.115198694
209	0x3df96ae1	0.12178589
210	0xbd2a540b	-0.041584056
211	0x3dc88588	0.09791094
212	0x3d835eb7	0.0641455
213	0x3d3035e4	0.043020144
214	0x3e30effd	0.17279048
215	0x3bd00fec	0.0063495543
216	0xbd80a06c	-0.06280598
217	0x3de553e9	0.11197645
218	0x3dea5557	0.114420585
219	0x3c7ba379	0.015358799
220	0xbbaaa0cd	-0.005207157
221	0x3ae9f7bc	0.001785032
222	0xbe2b71fe	-0.16742703
223	0x3d985796	0.07438581
224	0xbd15f07c	-0.036606297
225	0xbdbf1e4e	-0.09331952
226	0xbe0b89e6	-0.13626823
227	0xbe80164a	-0.25017005
228	0xbddfee12	-0.1093408
229	0x3d8efb66	0.06981544
230	0x3db62cde	0.088952765
231	0x3ed4076f	0.4141192
232	0xbd85fbe9	-0.06542189
233	0x3c896df3	0.01677606
234	0x3c3883ca	0.01126189
235	0x3dc1dd57	0.09466045
236	0x3e2b38f4	0.16720945
237	0xbe4c3432	-0.19941786
238	0xbdb54343	-0.0885072
239	0x3cba36df	0.022731243
240	0x3c3b04ac	0.011414688
241	0x3e6cb0fe	0.23114392
242	0xbdf4c194	-0.119509846
243	0xbded94c9	-0.11600644
244	0x3d57d35c	0.052691802
245	0xbb8d2413	-0.004307279
246	0x3e8df703	0.27727517
247	0xbead8265	-0.33888546
248	0xbdb69c0f	-0.089164846
249	0x3d8311c3	0.06399872
250	0xbd39bc1e	-0.04534542
251	0x3d7115b6	0.058858596
252	0x3d3e9826	0.04653182
253	0xbe1c0b32	-0.15238646
254	0xbcd553e0	-0.026040971
255	0x3d6f5157	0.05842718

fc1.bias f4 [64]
0	0x3e1b5538	0.15169227
1	0xbc40b835	-0.011762668
2	0xbe6c7abf	-0.23093699
3	0xbd944113	-0.072389744
4	0x3e210612	0.15724972
5	0x3c5066f7	0.012719861
6	0xbe279652	-0.16365936
7	0x3d6ed6aa	0.05831019
8	0xbd39a0dc	-0.045319423
9	0xbe1695f0	-0.14705634
10	0x3e79334c	0.24335974
11	0x3dfbfefe	0.12304495
12	0x3e2e07ac	0.16995114
13	0x3c6ef831	0.014585541
14	0xbd82958d	-0.06376181
15	0xbd8b0b39	-0.0678925
16	0x3de68ee4	0.11257723
17	0x3d19c863	0.03754462
18	0x3d05f4a3	0.032704007
19	0xbe36ce47	-0.17852126
20	0xbdde48bd	-0.108537175
21	0x3d2c4231	0.042055313
22	0x3d073111	0.033005778
23	0xbde7462e	-0.112926826
24	0xbdc25c18	-0.09490222
25	0xbce7e8d0	-0.028309256
26	0xbd72dd85	-0.05929329
27	0xbe4b59ba	-0.19858447
28	0x3e2070a4	0.15667969
29	0x3e268b9a	0.16264191
30	0xbd1ade43	-0.03780962
31	0xbe43c7df	-0.19119214
32	0x3dd0ddbb	0.10198542
33	0xbc6d1e76	-0.0144725945
34	0xbdddbb6c	-0.108267635
35	0x3c950c38	0.018194303
36	0xbd8413ec	-0.06449112
37	0x3da01370	0.078162074
38	0xbc6e8715	-0.014558573
39	0xbdcd83b9	-0.1003489
40	0xbdd12155	-0.10211436
41	0x3ca3972d	0.019969547
42	0xbdd5d37b	-0.10440727
43	0x3e3eadaa	0.18620935
44	0xbcdc595f	-0.026898084
45	0xbdc6f498	-0.09714621
46	0x3d2381cc	0.039918706
47	0xbe444d98	-0.19170225
48	0xbdc245b5	-0.09485952
49	0x3dfd961e	0.12382148
50	0xbdc9a656	-0.09846179
51	0x3e09e966	0.1346794
52	0xbd0013d1	-0.0312689
53	0xbe025735	-0.1272858
54	0xbe361f04	-0.17785269
55	0x3c0a8eac	0.008456867
56	0x3dbfcd05	0.09365276
57	0xbd3e938c	-0.04652743
58	0xbd25dde9	-0.040494833
59	0xbd7a7037	-0.061142173
60	0x3d08610d	0.03329568
61	0x3ce8a93b	0.028401008
62	0xbcbd5fba	-0.023116935
63	0x3da2ea09	0.07954795

fc2.weight f4 [64, 64]
0	0x3d6d4081	0.057922844
1	0x3ca1135e	0.019662555
2	0x3d3378a0	0.04381621
3	0xbbdc1fda	-0.006717664
4	0x3c0a248b	0.008431564
5	0xbd00b0da	-0.03141866
6	0xbdd913d9	-0.10599489
7	0x3d23d754	0.040000275
8	0x3dbf0735	0.093275465
9	0xbc6e48d9	-0.014543735
10	0xbd909711	-0.07060064
11	0x3de3628c	0.11102781
12	0xbdb76669	-0.0895508
13	0xbe3c9d4e	-0.18419382
14	0xbce5e49a	-0.028063107
15	0xbaabb6c1	-0.001310073
16	0xbe1f1c4d	-0.1553814
17	0xbdf2b13a	-0.118502095
18	0x3e56d95f	0.20981358
19	0xbb07b22b	-0.0020705562
20	0xbdf0fbaf	-0.11766755
21	0x3c15d188	0.009144194
22	0x3de02f3b	0.109465085
23	0xbe666d40	-0.22502613
24	0x3d89fd30	0.06737745
25	0x3ebb33d9	0.36562994
26	0x3e98521a	0.2975014
27	0x3cae20e9	0.021255927
28	0xbd95761d	-0.07297919
29	0x3da96676	0.08271496
30	0x3e00afbf	0.12567042
31	0xbe787bd1	-0.24265982
32	0x3e0b7c0d	0.1362154
33	0xbc920b4e	-0.017827656
34	0xbe008701	-0.125515
35	0x3ddc1b16	0.10747354
36	0x3cb40185	0.02197338
37	0x3e4fd7a0	0.20297098
38	0xbdf9b36b	-0.121924244
39	0x3dbf0c9c	0.09328577
40	0xbe055578	-0.13020885
41	0xbe98d846	-0.29852504
42	0xbe185cf6	-0.14879212
43	0xbc8472ac	-0.016167961
44	0x3d91e462	0.07123639
45	0xbe110ab1	-0.14164235
46	0xbd9f231b	-0.07770368
47	0x3dc0e9c8	0.0941959
48	0x3b04d22a	0.002026687
49	0x3e9c815e	0.3056745
50	0xbdd57b0a	-0.104238585
51	0xbe2bcb68	-0.16776812
52	0xbdb8ffa0	-0.090331316
53	0xbd4d881c	-0.050178632
54	0xbe7b1863	-0.24521022
55	0xbdce23de	-0.10065435
56	0xbd2fe36e	-0.042941503
57	0xbe23d321	-0.15998508
58	0xbcb85a4c	-0.022503994
59	0xbdc2010f	-0.09472858
60	0xbc9bc13d	-0.019013042
61	0x3ec805c0	0.39066887
62	0xbe975330	-0.29555655
63	0x3eb7f0f7	0.3592603
64	0xbd95b03e	-0.07309006
65	0x3dd293d5	0.10282103
66	0x3c969184	0.018379934
67	0x3e201e49	0.15636553
68	0x3c932f78	0.01796697
69	0x3ea38581	0.31937793
70	0xbe1515cd	-0.14559098
71	0x3c4efe8d	0.012633932
72	0xbba698b2	-0.0050841207
73	0xbe61e15e	-0.22058627
74	0xbd80589e	-0.062669024
75	0xbc140c9e	-0.009036211
76	0xbe4a2439	-0.1974038
77	0xbdcb0340	-0.09912729
78	0x3d0b1e90	0.033964694
79	0xbabf6bd5	-0.001460428
80	0x3e6b0a35	0.22953112
81	0xbd72879b	-0.059211355
82	0xbd0db5b9	-0.034597132
83	0x3d9687fb	0.07350155
84	0x3db6ac99	0.08919639
85	0xbe308f17	-0.17242084
86	0x3e9a163c	0.30095088
87	0x3c5ea588	0.01358927
88	0xbe3c5f46	-0.18395719
89	0x3d613b64	0.05498828
90	0xbe01f21c	-0.12690014
91	0xbdb2343c	-0.08701369
92	0x3d825c5d	0.06365273
93	0x3e699597	0.2281097
94	0x3db27494	0.08713642
95	0xbdcc1072	-0.09964074
96	0xbdd79579	-0.105265565
97	0x3d330eb3	0.04371519
98	0xbe9f2c42	-0.31088454
99	0x3b84c53d	0.004051833
100	0x3d9f94ff	0.077920906
101	0x3b9e4a81	0.004830659
102	0xbed38392	-0.41311318
103	0xbe971367	-0.2950699
104	0x3c0fe8e1	0.00878355
105	0xbf4636b9	-0.7742725
106	0x3e00899b	0.12552492
107	0xbe07b3f9	-0.13252248
108	0x3c448a14	0.011995811
109	0xbc3a0442	-0.011353554
110	0xbdb56d71	-0.08858765
111	0xbd3590a3	-0.04432739
112	0xbc88af50	-0.016685158
113	0xbd1a6f34	-0.037703708
114	0xbdd17370	-0.10227096
115	0x3e8260f7	0.25464603
116	0xbe0f3406	-0.13984689
117	0x3d809155	0.0627772
118	0xbd198e7b	-0.037489396
119	0xbc69282f	-0.014230772
120	0x3a1c2401	0.0005956293
121	0xbcf635f2	-0.03005502
122	0x3e96d89d	0.29462138
123	0xbd131dbc	-0.03591703
124	0xbf0f941f	-0.5608539
125	0xbdcdfa10	-0.10057461
126	0x3de56f73	0.11202898
127	0xbdbd1aca	-0.09233625
128	0xbdd0b2e0	-0.10190368
129	0xbd877378	-0.06613821
130	0x3cbcfeca	0.023070712
131	0xbb5dabc2	-0.00338243
132	0xbe0620cc	-0.13098449
133	0xbc83cb05	-0.016088018
134	0xbc63b5bf	-0.013898312
135	0xbe2e03ae	-0.16993591
136	0xbd392b2a	-0.04520718
137	0xbf00ca66	-0.50308836
138	0xbd0924a5	-0.033482213
139	0xbd96c191	-0.073611386
140	0x3da203a0	0.07910848
141	0x3e4d4c40	0.20048618
142	0x3d2b3055	0.04179414
143	0x3de3a604	0.11115649
144	0xbdb9f657	-0.09080189
145	0xbe11ec04	-0.14250189
146	0xbe35e024	-0.17761284
147	0xbe26dfbc	-0.16296285
148	0x3d2b9346	0.041888498
149	0x3dced5e1	0.10099388
150	0x3da109e4	0.078632146
151	0xbdc5caf9	-0.096578546
152	0xbdcf2939	-0.101152845
153	0x3d59673a	0.05307696
154	0x3e24414c	0.16040534
155	0x3db792b1	0.08963526
156	0xbd99b7eb	-0.07505783
157	0x3dfb953f	0.12284326
158	0xbd20d903	-0.03926946
159	0xbd4d20d4	-0.050080135
160	0xbdc9ebbf	-0.09859418
161	0xbd0028e8	-0.03128901
162	0xbe312a90	-0.17301393
163	0x3d0314b9	0.032002185
164	0xbd233ac7	-0.039850976
165	0x3e76c0b5	0.2409695
166	0xbe4d6f16	-0.20061907
167	0xbe81b26f	-0.25331447
168	0x3c99aafb	0.018758288
169	0x3e3d8878	0.1850909
170	0x3e1a8f0f	0.15093635
171	0xbcc5f9c9	-0.024166958
172	0xbd2246f3	-0.039618444
173	0xbda1c1b3	-0.07898273
174	0xbc5c064c	-0.013429236
175	0xbd076280	-0.03305292
176	0x3d976bf8	0.0739364
177	0xbe93db33	-0.28878173
178	0xbea8f8c1	-0.33002284
179	0x3ca7fb2d	0.020505512
180	0xbeb67db1	-0.3564277
181	0x3df7d129	0.12100441
182	0xbdf0d74c	-0.117598146
183	0xbddf4bf8	-0.10903162
184	0xbd9a21b3	-0.07525959
185	0xbee16cd0	-0.4402833
186	0x3d95f762	0.07322575
187	0xbdb8c417	-0.09021776
188	0xbe9ff39c	-0.31240547
189	0x3e14e335	0.14539798
190	0x3ec02876	0.3753087
191	0x3e816352	0.25271088
192	0xbd8cc58f	-0.06873619
193	0xbe725588	-0.2366544
194	0xbee452f4	-0.44594538
195	0x3c11bd02	0.008895161
196	0xbea06212	-0.31324822
197	0xbdafa24c	-0.085758775
198	0xbce8b850	-0.0284082
199	0xbe0f53f1	-0.13996865
200	0x3dd5a21b	0.1043131
201	0xbda43f47	-0.08019882
202	0x3d9de9cf	0.07710611
203	0x3e1d3bc6	0.15354833
204	0xbe7fda60	-0.24985647
205	0x3d1c11fa	0.03810308
206	0xbd5051ea	-0.05085937
207	0x3dc0c904	0.09413341
208	0xbe2152fb	-0.15754311
209	0x3d2b8b4e	0.0418809
210	0xbd938482	-0.07203008
211	0xbe9ead83	-0.30991754
212	0x3e4ff7e7	0.20309411
213	0x3ae77c90	0.0017661024
214	0xbdf6b9db	-0.12047168
215	0x3e5259c2	0.20542052
216	0x3e6a5cb2	0.22886923
217	0xbc0dbb59	-0.008650624
218	0x3e319698	0.17342603
219	0x3e02d386	0.12776002
220	0xbd0d6288	-0.034517795
221	0xbe8c0f73	-0.27355537
222	0xbb95f0e3	-0.004575835
223	0xbc0e08ea	-0.008669117
224	0x3be72b17	0.0070546973
225	0x3d929fc8	0.07159382
226	0x3d11f0ee	0.03563016
227	0x3e119e84	0.14220625
228	0xbe9ca570	-0.3059497
229	0x3e2b58ce	0.16733095
230	0x3e91bedd	0.2846593
231	0x3d017207	0.031602886
232	0xbdf882de	-0.12134336
233	0x3e7dab14	0.24772292
234	0x3e10694d	0.14102669
235	0xbd4e0326	-0.05029597
236	0xbbc5b7a1	-0.006033853
237	0xbdee6f61	-0.116423376
238	0xbce3adc8	-0.027792826
239	0x3ce4bfda	0.027923513
240	0x3da93071	0.082611926
241	0x3e362795	0.17788537
242	0xbe2c9def	-0.16857122
243	0x3d6e2f47	0.058150556
244	0x3e6a0e89	0.22857107
245	0x3c80c042	0.015716676
246	0xbe60fd37	-0.21971594
247	0x3d789d0d	0.06069665
248	0x3d834ad5	0.064107575
249	0xbeceaddb	-0.40367016
250	0xbd818f6c	-0.06326184
251	0xbd9aba48	-0.075550616
252	0x3c156ed5	0.009120663
253	0x3e181a27	0.14853726
254	0xbe2927fc	-0.16519159
255	0x3e47e245	0.19519909

fc2.bias f4 [64]
0	0xbdc4b18f	-0.09604179
1	0xbc0c47ac	-0.00856201
2	0x3da0da3a	0.078541234
3	0x3c894e53	0.01676098
4	0x3ddeb0ac	0.10873541
5	0xbe0bfa15	-0.13669617
6	0xbc870480	-0.016481638
7	0x3e108899	0.14114608
8	0x3e1612b6	0.14655575
9	0x3eef61a2	0.46754175
10	0xbd034318	-0.032046407
11	0x3da83905	0.082140006
12	0x3da08b4e	0.0783907
13	0xbde9e0f9	-0.11419863
14	0xbda1c0eb	-0.07898124
15	0x3ccf0d85	0.025275001
16	0x3d4fa74d	0.05069666
17	0xbd613684	-0.05498363
18	0xbdc8ca84	-0.09804252
19	0x3e0e2176	0.13879952
20	0x3e4f67f7	0.20254503
21	0x3eb930da	0.36170083
22	0xbe09e9b9	-0.13468064
23	0xbd4a6f28	-0.049422413
24	0xbda7d158	-0.08194226
25	0xbdef4432	-0.11682929
26	0x3d47ce02	0.04878045
27	0xbc8733c3	-0.016504174
28	0xbc6e91e0	-0.0145611465
29	0x3dc0fdc6	0.094234034
30	0x3df4c55e	0.11951707
31	0xbdeed531	-0.11661757
32	0x3a0168ee	0.0004936595
33	0x3da35c6f	0.07976615
34	0x3d4832bb	0.048876505
35	0xbd881a0c	-0.06645593
36	0xbe45b7f6	-0.19308457
37	0xbdff59fb	-0.12468334
38	0x3d9d58e0	0.07682967
39	0x3d9d562f	0.07682454
40	0xbddb6763	-0.10713079
41	0x3ef42151	0.47681668
42	0x3ec5da16	0.3864295
43	0xbdd3567e	-0.103192315
44	0x3e0e2d39	0.13884439
45	0xbd25e11d	-0.040497888
46	0xbd318fe7	-0.043350127
47	0xbe0e90f4	-0.13922483
48	0x3c85767e	0.016291853
49	0xbd1dc6ca	-0.03851966
50	0xbe20f34e	-0.15717813
51	0x3eb26cdf	0.34848687
52	0x3d018e03	0.031629574
53	0xbe2f7c86	-0.17137346
54	0x3dac566d	0.08414922
55	0x3da0d1d0	0.078525186
56	0xbe253f32	-0.16137388
57	0xbded9e65	-0.11602477
58	0xbc90f910	-0.017696887
59	0xbdced953	-0.10100045
60	0xbd10a310	-0.03531176
61	0x3e0f0611	0.13967158
62	0x3de36697	0.11103552
63	0xbdbdb381	-0.09262753

fc3.weight f4 [4, 64]
0	0xbdec04fe	-0.1152439
1	0x3ecb1f1e	0.39672178
2	0x3cd1a619	0.025591897
3	0xbeb900e7	-0.361335
4	0x3eec88af	0.4619803
5	0x3e9ef0d3	0.3104311
6	0x3e85b943	0.26117906
7	0xbd0e8739	-0.034796927
8	0x3e25b714	0.1618312
9	0x3e146a98	0.14493787
10	0x3eecdf0a	0.46263915
11	0x3cf478d4	0.029842772
12	0x3eddea68	0.433429
13	0xbd418a74	-0.04725118
14	0xbc9651ab	-0.01834949
15	0xbd697ccb	-0.057003777
16	0xbd91262f	-0.07087361
17	0xbd1434e9	-0.03618327
18	0x3d0b0246	0.033937715
19	0x3e4dd86d	0.20102091
20	0x3e0f350a	0.13985077
21	0x3e45620c	0.19275683
22	0x3c7312ff	0.014836072
23	0x3ec84930	0.39118338
24	0xbd393064	-0.045212165
25	0xbd5b0e9e	-0.053480737
26	0xbeaa790c	-0.33295476
27	0x3d6e0000	0.05810547
28	0x3ed69a4f	0.41914603
29	0x3d99de4d	0.07513104
30	0xbf0f7879	-0.560432
31	0x3e3bbef4	0.18334562
32	0x3dc4352b	0.095804535
33	0x3e8a113b	0.2696627
34	0x3d62bcd0	0.055355847
35	0x3de1ffcb	0.11035117
36	0xbdd31212	-0.10306181
37	0xbb5b105f	-0.0033426506
38	0x3df8efb9	0.121550985
39	0x3e8ca27a	0.2746771
40	0xbdbdc5f2	-0.09266271
41	0x3e5d2a10	0.21598077
42	0x3e33d487	0.17561541
43	0x3e45a609	0.19301619
44	0x3e06f69f	0.13180016
45	0xbd53a61f	-0.051672097
46	0x3e106dcc	0.14104384
47	0x3e49062f	0.19631265
48	0xbe133032	-0.14373854
49	0x3e86b04b	0.26306376
50	0xbe896119	-0.26831892
51	0x3e9018ca	0.28143913
52	0x3e00b0ff	0.12567519
53	0xbe90fdc7	-0.28318617
54	0x3da48c88	0.08034617
55	0x3d8fb9cb	0.07017859
56	0xbe7c53ed	-0.2464139
57	0xbe096813	-0.13418607
58	0xbbe8a8c6	-0.0071001975
59	0x3e86e283	0.2634469
60	0xbe86de24	-0.26341355
61	0x3e719460	0.23591757
62	0xbb4e602c	-0.0031490428
63	0xbe4d5975	-0.20053656
64	0xbd6b8ff0	-0.057510316
65	0x3ea2b04d	0.31775132
66	0x3d02f422	0.031971104
67	0xbdaaa3f9	-0.083320566
68	0x3ed05bb1	0.40694955
69	0x3e86ab91	0.2630277
70	0x3e7e381e	0.24826095
71	0xbb85738f	-0.0040726135
72	0x3df7c08d	0.12097273
73	0x3e44ed50	0.19231153
74	0x3eca4a57	0.39509842
75	0x3e99d9f2	0.30049092
76	0x3ed93c12	0.42428643
77	0x3ec73864	0.3891021
78	0xbca5de60	-0.020247638
79	0x3ded6b51	0.115927346
80	0x3dbc01b5	0.09180013
81	0xbcb37f2c	-0.021911226
82	0x3d07fe6f	0.03320163
83	0x3e125d7f	0.14293478
84	0x3db01317	0.08597391
85	0x3e5691cd	0.20954056
86	0xbde0a1d3	-0.109683655
87	0x3e840f96	0.2579314
88	0x3d031972	0.03200669
89	0xbd80d03c	-0.062897176
90	0x3de6f913	0.11277976
91	0x3e689344	0.22712427
92	0x3e8462f4	0.25856745
93	0x3e33a9a8	0.17545187
94	0x3bb9dbdc	0.0056719612
95	0x3ecfed06	0.40610522
96	0xbd436d70	-0.04771179
97	0x3e6eac51	0.23307921
98	0x3db23bd2	0.08702816
99	0x3e876ea5	0.26451603
100	0xbd7e9fbc	-0.062164053
101	0xbe145804	-0.144867
102	0x3e334fd5	0.17510922
103	0x3dba2723	0.09089496
104	0x3cf15d27	0.029463364
105	0x3e314afc	0.1731376
106	0x3dbe0426	0.09278135
107	0x3e7fddae	0.24986908
108	0x3db072c3	0.08615639
109	0xbddb4453	-0.10706391
110	0x3e1e62f2	0.15467432
111	0x3eeb0e20	0.45909214
112	0xbdb35826	-0.08757047
113	0x3e8493cd	0.25894013
114	0xbe7967e7	-0.24356042
115	0x3e3877a8	0.18014395
116	0x3e0ce40b	0.13758866
117	0xbe29212e	-0.16516563
118	0x3e1358de	0.14389369
119	0x3e0dae0d	0.13835926
120	0xbe99fa64	-0.30073845
121	0xbeed71fa	-0.4637602
122	0x3e834a58	0.25642657
123	0x3e7d4f8e	0.24737379
124	0xbe017f7b	-0.12646286
125	0x3e4fc05c	0.20288223
126	0xbeda37ba	-0.4262064
127	0xbdd4cc4e	-0.103905305
128	0x3dc98437	0.09839671
129	0x3e5548c3	0.20828538
130	0x3ea4933f	0.3214359
131	0xbdeaf00b	-0.11471566
132	0x3ee08eca	0.4385894
133	0x3dcf316f	0.101168506
134	0xbc937a9d	-0.018002803
135	0x3dc61f34	0.0967392
136	0x3db66323	0.089056276
137	0x3e290d32	0.1650894
138	0x3d46fe54	0.04858239
139	0x3f15e2dd	0.5854929
140	0x3ea8b133	0.32947692
141	0xbed8c0c9	-0.42334583
142	0xbd985c66	-0.074394986
143	0xbd943297	-0.07236212
144	0x3f0d0b47	0.5509533
145	0xbe928be5	-0.28622356
146	0xbe30fea3	-0.17284636
147	0x3dcbc65c	0.099499434
148	0x3d733f05	0.059386272
149	0x3e7109d1	0.23538901
150	0xbe241a07	-0.16025554
151	0x3ea15e56	0.31517285
152	0x3e3ee12a	0.18640581
153	0xbd699929	-0.05703083
154	0x3e073c1c	0.13206524
155	0xbf0480f1	-0.5175925
156	0x3ec2e7e0	0.38067532
157	0x3e186043	0.14880471
158	0xbe92cb92	-0.28670937
159	0xbd2b808d	-0.041870642
160	0xbf08ee1c	-0.53488326
161	0x3bffa232	0.0078013176
162	0x3e7a7e8c	0.24462336
163	0x3e97b893	0.29633006
164	0xbe75df86	-0.24011049
165	0xbec3d4ac	-0.38248193
166	0xbe68a7aa	-0.22720209
167	0x3ddd9e40	0.108211994
168	0xbe64403b	-0.22290127
169	0x3e4dbe71	0.20092179
170	0x3e618445	0.22023113
171	0x3e41631f	0.18885468
172	0x3d6907be	0.05689215
173	0xbae25623	-0.0017268102
174	0x3e8a70c5	0.2703916
175	0x3f2c6297	0.67337936
176	0x3b8ce94e	0.004300273
177	0x3e2b3e33	0.16722946
178	0xbe697951	-0.22800185
179	0x3e939a2f	0.2882857
180	0x3e6f612b	0.2337691
181	0xbd852d02	-0.06502725
182	0x3e281925	0.16415842
183	0x3e313452	0.17305115
184	0xbe34dd8e	-0.17662641
185	0xbd9d65e8	-0.07685453
186	0x3ec7ff3e	0.39061922
187	0x3e66a9fe	0.22525784
188	0xbe86bf93	-0.26318035
189	0x3ebfed6f	0.37485835
190	0xbddbe68a	-0.10737331
191	0xbe88cd8e	-0.26719326
192	0xbeb2e7a0	-0.3494234
193	0x3e45ff04	0.19335562
194	0x3e3e36b7	0.1857556
195	0xbe380972	-0.17972353
196	0x3e73099e	0.23734137
197	0x3e8a10cf	0.2696595
198	0xbe0c2a67	-0.1368805
199	0x3e6f04de	0.233417
200	0x3e43d928	0.19125807
201	0x3e575dca	0.21031871
202	0x3ef4a7f9	0.47784403
203	0x3e949a02	0.2902375
204	0x3e929daa	0.28635913
205	0x3e7db3c8	0.24775612
206	0x3d5080d1	0.0509041
207	0xbe9024a3	-0.28152952
208	0xbdb0561f	-0.08610176
209	0x3e03443e	0.12819001
210	0x3e6d0fc9	0.23150553
211	0x3dc05128	0.09390479
212	0x3d9618fc	0.07328984
213	0x3e89b004	0.26892102
214	0xbe2e2ec0	-0.17010021
215	0x3ef1d6af	0.47234103
216	0x3d0442b2	0.032290168
217	0xbdca7384	-0.09885314
218	0xbd9d4dcc	-0.07680854
219	0x3e5c1c2b	0.2149512
220	0x3f5c877a	0.8614422
221	0xbd18d0dc	-0.03730856
222	0xbe6070d4	-0.2191804
223	0x3f1903e9	0.5977159
224	0x3e027432	0.12739637
225	0x3dfc9a10	0.123340726
226	0xba6c84a5	-0.0009022451
227	0x3cb3f0d8	0.02196543
228	0xbe0063a8	-0.12538016
229	0x3e00c4bf	0.12575053
230	0x3ee4e59e	0.44706434
231	0x3d26f681	0.04076243
232	0xbeda5330	-0.42641592
233	0x3e34dbd6	0.17661986
234	0x3e2dfd0b	0.1699106
235	0x3d00bffa	0.031433083
236	0x3d8b6a6b	0.06807407
237	0xbe43b410	-0.19111657
238	0x3d65372c	0.05596082
239	0xbea261a5	-0.31715122
240	0x3da3b474	0.07993403
241	0x3e7a8f26	0.2446867
242	0x3dab4988	0.08363634
243	0x3e670238	0.2255944
244	0x3e1fae24	0.15593773
245	0xbda895e0	-0.082317114
246	0x3dd3533a	0.103186086
247	0x3da5a358	0.08087796
248	0xbee7ebaf	-0.45297
249	0xbe26c482	-0.162859
250	0x3c19cd12	0.0093872715
251	0xbe87778e	-0.264584
252	0xbf062128	-0.5239434
253	0x3e62c258	0.22144449
254	0xbe41e498	-0.18934858
255	0xbe35d61f	-0.17757462

fc3.bias f4 [4]
0	0x3e7ff1e0	0.24994612
1	0x3e917dd5	0.28416315
2	0x3e3eadb7	0.18620954
3	0x3e4899df	0.19589947
