project1-navigation/model.pth (torch_old, 28417 bytes, 6 tensors)

fc1.weight f4 [64, 37]
00000000: 80ae 273e 0ce2 debd e8b1 9cbe f7ed e2bd
00000010: fcdf a33d 5838 10be a189 0f3e 6769 383e
00000020: bdc6 cebc b633 4abd 32a1 133d 018b fabd
00000030: 1d2e babd 88eb cbbe aa7c 01bf 1258 3b3d
00000040: 597a c53c e3d0 873d 1d80 9ebe 5030 03be
00000050: 80c7 d03d c0ad 823c 657c b9bd 8027 613e
00000060: 7cdf bbbd f111 40be 8ec3 033e 089c e03d
00000070: d512 ecbe 88b1 2dbd 0d96 223e e4dc 16be
00000080: 7e47 9fbd c1ca f0be c224 e8be 7cf6 3cba
00000090: 8522 30bc 7a67 fa3d ab39 e53d c1e1 843d
000000a0: 8852 c23d 2d39 00bd 0b85 723e 3093 e4be
000000b0: 0143 9ebe 9124 e2be cb0c 6fbf 46be fb3d
000000c0: f4a4 debc 928b f2bc 4510 8a3d e9ef b33d
000000d0: d812 133e ee47 13bd 9291 42bc 0f20 a93d
000000e0: ba0c 9a3c e942 edbd d427 84bd b497 a8bd
000000f0: 7d8d 593d a8c4 ef3d f84f 42bd 1feb f83d
00000100: 7447 3ebd 3726 8b3d c988 0d3e dfb1 0d3d
00000110: 918e f63d 2ec9 0c3e 14ec 1b3e b9cc 463d
00000120: ef83 493d de58 f3bb 3a4b 713d c9b2 ddbd
00000130: 2ebc 823e 9022 4fbd 972c 533e f51b 88be
00000140: 1c91 a1be afe1 7a3e 87c7 293e f9cc 34be
00000150: a4dc 8fbd 9a8f 453d d388 eabd 7f39 7a3e
00000160: ed20 873e f5c5 a1be 861b 703c b299 103e
00000170: d05d 2a3e 43bc 3dbd 7118 84be 8dfc c8bd
00000180: 1f55 4d3e e20c c1ba 669b 243d 4f67 53be
00000190: 56ea 1f3e 1f29 0a3e 54f4 bc3c 6067 8fbd
000001a0: dc61 fabd 80df 9ebd ae60 d8bd 3992 09bd
000001b0: 807b 993c fb52 903a f8b0 08bd 00c7 76be
000001c0: 7048 0cbe 0e13 ba3e 08bd 86bd 4a76 23bf
000001d0: d56f 6bbe 0be0 a63d 9611 0c3e f5fb febd
000001e0: 9d9b 143e f2a1 e43d e496 1038 1d77 c1bd
000001f0: 67c3 72be d9a1 82bd 440c a9bd a36b a3be
00000200: 4107 d73c b3a0 e8bd 2b3f 25bf 3698 403a
00000210: 8080 033d fb2a 12be 7193 eb3d 93e5 9cbd
00000220: c70b 30be fd41 c2bc 7574 153e b673 123e
00000230: d07b 53be 03a9 0dbb 0ec5 553e adfd 9a3d
00000240: cbf5 5cbe bb3b ccbd 76e7 e73d a2f0 c0bc
00000250: 9afa 04bc 2205 56be 6320 d5bd 1c6a 09be
00000260: 77ae af3c 4807 133e 6500 33bc c534 2b3c
00000270: 9cfc 39be cdc7 ba3d 34d6 403d ec34 76bd
00000280: 0f13 98bd 5969 bfbd b796 3fbe a8ae 1cbd
00000290: 2a12 94bd 20c5 9dbb 84e1 4ebd 7041 923e
000002a0: 5291 f23c ef6d 8bbe 4493 c7bc 9de7 223e
000002b0: a4e4 ef3e 9ad2 c93d 22c6 e3bd 40e4 b83a
000002c0: 6c29 923d 4421 783d 93f2 f53d 38b0 47be
000002d0: 4f44 fb3b c2ee 6d3e 0f4d 013f 9737 afbb
000002e0: 3416 4c3c cabb c63c 4493 86bc 76b1 193d
000002f0: 25fd 463d 55b0 f23d 5740 c83e 1b5b e4be
00000300: d8f8 b6be 534c ebbe 2856 eabf cc7e 66bd
00000310: 5b1b a03c b58e 253c 5fb0 94bd b0e3 76bc
00000320: e2a7 c6bc ee81 003e 5763 5fbd e0a0 a33d
00000330: 2a59 52bc e96c 9a3d d1ce d53d 993f 1f3e
00000340: b64d 283e 2e07 173e 7121 82bd b45f 9e3d
00000350: 008f 503d b628 1e3e 3739 d53d 46e7 f73c
00000360: 9f0a 02bd 08c2 8b3d 0eb2 013e 0320 083d
00000370: abb4 babc 9db6 1939 7844 183b 1c38 dfbd
00000380: 24fb 373d 3adc 6cbd 69bd aabc 7097 57be
00000390: 539a 1cbe 51b0 dc3d a6c2 963d f993 c83e
000003a0: 5e62 68bd 05d1 113e 8ecb a63c e8c6 4c3d
000003b0: 3f11 f53b 81f1 f3bc 53f4 93be fdf2 ddbd
000003c0: a9e5 d03d fdc4 0a3f e4ff bdbd 32a8 533d
000003d0: 99fc 2fbd e81d 20be 3274 0d3e 6b07 77be
000003e0: 2248 8dbd d142 f1bc 6d1e 73bd f9c4 b83e
000003f0: f3de c3bc b02b 753d 0907 d8bd 3ab8 193e
0.1637516 -0.10882959 -0.30604482 -0.110805444 0.08001706 -0.14083993 0.14017345 0.18008958
-0.02524125 -0.04936572 0.0360424 -0.12233544 -0.09090827 -0.39828134 -0.5058085 0.045738287
0.024106191 0.06631639 -0.30957118 -0.12811399 0.101943016 0.015951991 -0.090569295 0.21987724
-0.09173486 -0.18756844 0.12867567 0.109672606 -0.46108118 -0.042405635 0.15877552 -0.147327
-0.07777308 -0.4702969 -0.45340544 -0.000720836 -0.010750418 0.12226768 0.1119264 0.06488372
0.09488398 -0.031304527 0.23683564 -0.44643545 -0.30910495 -0.44168523 -0.93378896 0.12292151
-0.027178265 -0.029607568 0.067413844 0.087859936 0.14362657 -0.03595727 -0.011875527 0.08258068
0.018804897 -0.11585028 -0.06452909 -0.0823206 0.05311345 0.11707431 -0.047439545 0.12154221
-0.04645486 0.06794398 0.1382171 0.03459346 0.12038911 0.13748619 0.15226775 0.048535082
0.049198087 -0.0074263653 0.058909632 -0.10825116 0.25534195 -0.05057007 0.20622478 -0.2658383
-0.31556022 0.24500154 0.1658002 -0.17656316 -0.07024506 0.048232652 -0.114518784 0.24435996
0.26392308 -0.31596342 0.014655 0.1412113 0.16637349 -0.04632212 -0.25799897 -0.09813795
0.20052002 -0.0014728571 0.040187262 -0.20644878 0.15616736 0.13492249 0.023065723 -0.07002139
-0.122256964 -0.07757473 -0.10565315 -0.033586714 0.018735647 0.0011011058 -0.033371896 -0.2409935
-0.13699508 0.36342663 -0.065790236 -0.6385237 -0.2299188 0.081482016 0.13678584 -0.12450401
0.14512487 0.11163701 3.4472803e-05 -0.09446547 -0.23707353 -0.06378526 -0.082542926 -0.31918058
0.026248576 -0.11358776 -0.6454951 0.00073469 0.03210497 -0.14274208 0.115027316 -0.07660975
-0.17191993 -0.023713106 0.14595206 0.14301953 -0.206527 -0.0021615631 0.20875952 0.07567916
-0.21578138 -0.0997233 0.113234445 -0.023552243 -0.008116389 -0.20900396 -0.10406568 -0.13419384
0.021445496 0.14358246 -0.010925387 0.010449593 -0.18162769 0.0912014 0.04707928 -0.060109064
-0.0742551 -0.09346265 -0.18709837 -0.038252503 -0.07230027 -0.004814759 -0.050508037 0.2856555
0.02961031 -0.2723231 -0.024362214 0.15908666 0.46854126 0.09854622 -0.11121775 0.001410611
0.07136807 0.0605786 0.12009158 -0.19500816 0.007668055 0.2323561 0.5050821 -0.005347203
0.0124564655 0.024259467 -0.016427644 0.037522756 0.04858126 0.11850039 0.39111587 -0.44600758
-0.35736728 -0.45956668 -1.8307543 -0.056273267 0.019544294 0.010104825 -0.072602026 -0.015068933
-0.024249975 0.12549564 -0.054538097 0.07989669 -0.012838641 0.07540304 0.10439838 0.15551604
0.16435894 0.14748833 -0.06354035 0.07733098 0.050917625 0.15445217 0.104113035 0.030261647
-0.03174841 0.06824118 0.12665579 0.033233654 -0.022791227 0.00014659246 0.002323417 -0.10899374
0.04491724 -0.057827212 -0.02084227 -0.21053863 -0.15293245 0.10775817 0.07361345 0.39175394
-0.056734435 0.14239891 0.020360734 0.04999438 0.0074788625 -0.029778244 -0.28897342 -0.10837362
0.10200054 0.5420683 -0.09277323 0.051674075 -0.042965505 -0.15636408 0.13813856 -0.24123923
-0.06898524 -0.029450806 -0.05935519 0.36087778 -0.023910021 0.059856117 -0.10548217 0.15011683

fc1.bias f4 [64]
00000000: 6fc7 093e 77a6 bcbb 1313 53be 4eab 89bd
00000010: 2632 3b3e 1f40 e83c 31b4 10be 2f45 c63d
00000020: 5e21 4fbd d53b f8bd 02fb 123e e7a6 313e
00000030: 4ced 023e e66b d63d 78cd d1bd b653 7bbd
00000040: 008b 6e3d 95ff 1b3d aa0a d53c 02b9 40be
00000050: 7c87 28be 5de5 103c eda5 7f3b 6d97 a1bd
00000060: 0226 46be 33bd fd3d c88b d4bd b5c6 2dbe
00000070: 6e7d d73d 0085 2c3e 7dfb 63bd 0522 4ebe
00000080: 6c1e 713d 05ad 86bc dd6c 0cbe 73a2 643c
00000090: 78e8 a2bd 38c9 5e3d 3975 00bd ae7b bdbd
000000a0: e9e4 a8bd 5168 0a3d fa7c f4bd 00db 4e3e
000000b0: 715d 1f3d 2a78 a6bd 08b9 df3c 1ee5 ffbd
000000c0: 4349 f6bd 2c8b e23d cf63 2cbe 8e72 a63d
000000d0: 81db b7bc fb0c 59bd 41eb 5ebe 34b6 c43a
000000e0: d0bf d63d 024a bfbd c29f 78bd 6569 04be
000000f0: b733 2b3c 56e8 46bc c459 8b3d c882 3b3d
0.13454984 -0.005757149 -0.20612745 -0.06722127 0.18280849 0.028350888 -0.14131238 0.096811645
-0.05056893 -0.12120787 0.14353564 0.17348824 0.12785834 0.10469799 -0.10244268 -0.06135913
0.05823803 0.03808554 0.026006062 -0.18820575 -0.16457933 0.008843747 0.0039008812 -0.0789021
-0.19350436 0.123896025 -0.10378224 -0.16970332 0.10521971 0.1684761 -0.05565976 -0.20130165
0.058866903 -0.016439924 -0.13713403 0.013954747 -0.07954496 0.054391116 -0.031361792 -0.09252106
-0.08246786 0.03379089 -0.119379 0.2020073 0.038907472 -0.08128388 0.02730991 -0.124948725
-0.12025692 0.11061701 -0.16834949 0.08127318 -0.022443535 -0.052990895 -0.2176943 0.0015007914
0.10485804 -0.09340288 -0.060699232 -0.1293083 0.0104493415 -0.012140354 0.06804231 0.04577902

fc2.weight f4 [64, 64]
00000000: c785 353e 4848 2b3e 4e09 ae3d 5428 633e
00000010: 83cd c1bd 8b53 8bbd b213 0c3d f042 a1bd
00000020: 30d6 39be f4df 0ebe 77b9 253e 6477 e0bd
00000030: 3209 2b3c 6bfa 143e 38b7 b5bd a071 973c
00000040: 54e9 2bbe bee6 97be c31e e13d 56d1 283d
00000050: d252 113d 5838 1abe 550c 593e 8780 9c3d
00000060: a54d f03d 556b a1be 7314 f23d a793 393d
00000070: 58f0 d63d e947 863c 686a 323e 2559 43be
00000080: 2835 6ebe 581f 4cbe dc3a f6bd 3a52 25be
00000090: a5a2 963d 37d9 833e 76e7 fe3d f18b 113d
000000a0: 93ca d2be 7e9f 5fbd c339 843e 540b 7fbe
000000b0: 7c97 0f3e e356 73be ed90 83be bb5f aebe
000000c0: aa80 27be 9bcf 053e 42df a43c 1383 f43d
000000d0: acf5 42be 5301 a63e 9d4b 25be 310c 0abe
000000e0: 7472 49be 3247 15be b164 93bd 1458 063e
000000f0: 8115 2f3d 7298 4b3e 7034 dc3d e84e c5bd
00000100: bf24 4a3d 3f62 5b3e 56af f53b 629b 663c
00000110: 94c7 7ebc 3613 9a3e d5fe 50be 91ed b1bd
00000120: 7f54 90bc 5732 39be b2d6 ee3d c2c0 0e3e
00000130: 8478 c8bd 84ea 9f3c 6408 31be 2513 dd3c
00000140: 2061 3e3e 219f f43d 0c29 afbb dc94 0a3e
00000150: 9aef a43c 72ee 41bd 2e80 5e3e 2562 313d
00000160: af83 da3d 295e 063e f600 f6bd 4c66 0bbd
00000170: 4d31 9d3a 0381 4f3e e8f6 4c3d 652d 5cbd
00000180: dfda babd 9fec 823c be4a 33be 292a 5cbd
00000190: 6d3b cabd 5437 aabd 60c3 debc b743 22be
000001a0: 9458 56bd 03ac 9dbe 0117 bf3c 241d 96bd
000001b0: fa32 9e3d e89c 09be efb5 c5bd b725 bbbd
000001c0: f65a 56bd 9b50 7abd 9d4b cc3c 8255 613e
000001d0: 571a cabd b0f0 5fbe 2b9a 2ebe ca24 13bd
000001e0: c5a1 84be 63d2 573b cd0a 953e 77ee b13d
000001f0: 047a 21be 79c5 f53c 0063 cbbd e964 07bf
00000200: bd94 7ebe 6808 0bbe ae7c bf3d 72da 00bd
00000210: 54d8 183b 3213 f53d 3686 af3d 03ca b8bd
00000220: 058c fc3d 8318 a2be ad46 32be a59a 793d
00000230: bf1a 1c3e a352 c2bc 47f2 f9bd 89e1 afbc
00000240: a191 1dbe ea2c c9bd a516 92bd 3ee2 d3bd
00000250: 722c 48be 3d25 303d 9180 753d b002 12be
00000260: 517a 7dbc 6bc2 e0bd ee83 63bd 1997 cb3e
00000270: d73b 32bd 1e61 e43d b73a ed3d dfed b73d
00000280: 1192 67be df8a 04be 970b bdbd 7259 463e
00000290: 8113 b53e 2ecc 343e 6d39 af3c 71f4 b53d
000002a0: 7939 6ebc 0955 8abe 4cb8 c43d 0b85 6bbd
000002b0: 8f09 03be 21b8 253e 8bc4 713d d0c1 a7bc
000002c0: d657 1f3e 4808 4f3e c8c5 2fbe ea0d eb3d
000002d0: bb28 583c a380 d53e 4b36 c9be 0ae6 77bd
000002e0: 2512 003e 3878 a5be ee7a d83d d2b9 97bc
000002f0: 0fc1 02be 09a5 093d 2b56 8c3d 072d 023f
00000300: 3949 8a3e 8418 1dbd e506 80be f596 903d
00000310: 8fad 6abe 88ca 1abe 6626 b4be d625 183d
00000320: a98c 5abe dcc9 6ebe 3d14 063e f68a d93d
00000330: e1b9 bcbd c671 293e 9b60 59be 8dec 13be
00000340: ab46 b5bc 5232 47bd a8c9 c9bc 9049 35be
00000350: da88 893e a10a e9bd 32e5 69be 3e56 6d3e
00000360: a49d 4d3e 5591 8ebc 0038 a93e ce40 93bd
00000370: adc1 3d3d c8b0 9cbe 00ac 88be 576e 5bbe
00000380: f280 bebd 25a6 f8be 8ad1 12be dc5f e13d
00000390: 983e 77be feec 423e e227 afbd 95ab 0dbe
000003a0: 4616 56be 8654 243e 5f63 903e e610 cdbd
000003b0: eb55 35be a761 2abe 5170 bbbd 9ad5 95bd
000003c0: 605c 1ebe 96d2 0dbe 2b5e 8abd e238 353e
000003d0: a516 9c3e 55ad a53e 13ef 7bbe 8bd7 a73d
000003e0: 3d8f a63d 5614 cbbe c775 34be e45f 093e
000003f0: 06d7 73be ce61 e23d 0a0e 753d 21e7 c6bd
0.17726813 0.16726792 0.084978685 0.22183353 -0.094630264 -0.06803044 0.03419847 -0.078740954
-0.18148112 -0.13952619 0.1618403 -0.10960272 0.010439204 0.14548652 -0.08872837 0.018486798
-0.16788226 -0.2966823 0.109921955 0.041215263 0.035479374 -0.15060556 0.2119611 0.07641702
0.117335595 -0.315272 0.11820307 0.045306828 0.10495061 0.016391711 0.17423403 -0.19076975
-0.23262465 -0.19933832 -0.12022945 -0.16144648 0.07355241 0.2575166 0.124464914 0.03553385
-0.41170177 -0.054595463 0.2582532 -0.24906665 0.1402263 -0.23763613 -0.25696507 -0.34057412
-0.16357675 0.13067476 0.020125989 0.11939063 -0.19039029 0.32422885 -0.16142125 -0.13481213
-0.19672567 -0.1457794 -0.0719694 0.13119537 0.042745117 0.19882372 0.10752189 -0.09634191
0.04935145 0.21424197 0.0074977083 0.014075132 -0.015550513 0.30092782 -0.2040971 -0.0868789
-0.017618416 -0.1808561 0.11662044 0.13940719 -0.097886115 0.019521005 -0.17288357 0.026986668
0.18591738 0.11944414 -0.0053454693 0.13533348 0.020133782 -0.04734654 0.21728584 0.04330649
0.10669648 0.13121857 -0.12011902 -0.034033105 0.0011992842 0.20264058 0.050040156 -0.05375423
-0.091237776 0.01598197 -0.1750898 -0.053751145 -0.09874616 -0.08311334 -0.027192771 -0.15846144
-0.05233057 -0.30795297 0.023326399 -0.07329777 0.07724567 -0.13438761 -0.09653842 -0.09138053
-0.05233284 -0.061112028 0.024938399 0.22005275 -0.09868305 -0.21869159 -0.17050998 -0.035923757
-0.2590467 0.0032931797 0.29109803 0.08688062 -0.15769202 0.030001389 -0.09930992 -0.5288835
-0.24861427 -0.13577425 0.09349953 -0.031458326 0.00233223 0.11966552 0.085705206 -0.09022906
0.12331394 -0.31659326 -0.17409773 0.060938496 0.15244578 -0.023721045 -0.12204414 -0.021469848
-0.15387584 -0.0982302 -0.07133225 -0.10345887 -0.19548205 0.043004263 0.059937064 -0.14258838
-0.015471057 -0.10974582 -0.05554574 0.39763716 -0.0435141 0.11151336 0.115834646 0.08980917
-0.22614314 -0.129436 -0.09230726 0.19370058 0.35366443 0.17656013 0.021389687 0.08884514
-0.01454007 -0.27018002 0.09605464 -0.057499927 -0.12796615 0.16183521 0.05902533 -0.02047816
0.1556085 0.20218003 -0.17165291 0.11477263 0.013193305 0.41699705 -0.39299235 -0.060522117
0.12506922 -0.32318282 0.10570322 -0.018521223 -0.12768959 0.033604655 0.06852373 0.50849956
0.2700899 -0.038353458 -0.2500526 0.07060043 -0.2291777 -0.15116322 -0.35185546 0.03714546
-0.2134272 -0.2331919 0.13093658 0.10622208 -0.09215141 0.16547307 -0.21228258 -0.14445706
-0.022128424 -0.048631974 -0.02463229 -0.17703843 0.26862222 -0.113789804 -0.22841337 0.2317743
0.20079666 -0.017403284 0.33050537 -0.07190095 0.04632728 -0.30603623 -0.26693726 -0.2142881
-0.09301938 -0.48564258 -0.14337745 0.11004612 -0.24144971 0.19035718 -0.08552529 -0.13834985
-0.20906934 0.16047868 0.28200814 -0.10012989 -0.17708556 -0.16638814 -0.09152282 -0.07316132
-0.15464926 -0.13849863 -0.06756242 0.1769748 0.30486026 0.32358804 -0.24602918 0.081954084
0.08132789 -0.39663953 -0.17623053 0.13415486 -0.23812494 0.11053811 0.05982784 -0.09712053

fc2.bias f4 [64]
00000000: d4be 4fbd 93fb aa3b 42a7 1e3e 7681 7b3b
00000010: 302d 113e c248 6ebd d0f9 c83c ee84 083e
00000020: d84f 753e 5fd4 fc3e 20d8 333c 9835 c83d
00000030: 4556 7c3e 826b 07be c296 75bc 5a26 703c
00000040: b89d 923c ea28 b1bd 2880 b0bc b0d7 7a3e
00000050: ecd0 1c3e dea2 f23e 6928 4fbe 5046 d53c
00000060: 37dc 60bd e8ad d8bd 1bd6 b5bc 1c66 3fbe
00000070: 6d1d 33bd f6b7 a13e 790a 47bd 83a1 dcbd
00000080: 6ee2 46bd 3edd 8a3e 6727 643c 46b6 6e3e
00000090: f162 15be 7faa 2abe f1ab f03d cad7 c2bd
000000a0: 93f2 d0bd 706f 053f e643 cb3e d214 a3bd
000000b0: 8c8c 243e e1fd aebd e63a 4dbc 8848 1ebe
000000c0: a9b0 da3d 6f07 9cbc 8cbc 21be 1d92 af3e
000000d0: 085f 81bd 08f6 c9bc d52a 533d d74e 9fbd
000000e0: 4f96 23be 2b20 2dbe 730e cfbd c001 663c
000000f0: 9ef4 28bd 0221 af3d 0eaf ab3d 07a3 a8bd
-0.050719097 0.0052179783 0.15493491 0.0038376725 0.14177394 -0.058174856 0.024533182 0.13331959
0.23956239 0.49380776 0.010976821 0.09775847 0.24642284 -0.13224605 -0.014989557 0.014657581
0.017897472 -0.08650382 -0.021545485 0.24496341 0.15314072 0.47389883 -0.20230259 0.026034504
-0.054897513 -0.10580045 -0.02219682 -0.18691295 -0.043729234 0.31585664 -0.048593972 -0.107729934
-0.048555784 0.2712192 0.01392541 0.2331172 -0.14588524 -0.16666602 0.11751545 -0.09513815
-0.10202517 0.52123165 0.3970024 -0.079629555 0.1606924 -0.08544517 -0.0125262495 -0.15457356
0.106782265 -0.019046513 -0.15794581 0.34291163 -0.06316954 -0.02465345 0.05155452 -0.077787094
-0.15975307 -0.16906802 -0.10110178 0.014038503 -0.04124891 0.085512176 0.083829984 -0.0823422

fc3.weight f4 [4, 64]
00000000: b1d1 97be b3cc 9e3e 2e64 063e 03be 04bf
00000010: 0e41 db3e ec28 e33e 8da2 433e 2ada 87bc
00000020: d0c7 143e 7f4e 2f3e 1088 2e3d c129 8d3e
00000030: ddcf 1f3e d878 8cbe d54c 033e 7d88 233e
00000040: cb54 39be 9ba9 78bd e4e0 e03d e05c 853e
00000050: 2703 f23d 21be 1c3e 1e27 913b f93b 3d3e
00000060: 0215 4f3e 0472 23bd c1fc 62be 6078 8dbe
00000070: 456e 89be ca93 ed3d 20e7 8dbe d5ed bd3e
00000080: 8435 853e d50b 1b3e c0cf ba3d 9e4c 043d
00000090: 9bf3 063d 80fb a53c 55f0 af3d bbca 32bc
000000a0: 9f2e 4ebe 0f2f 4c3e eb90 c93d ca79 a43d
000000b0: 1b8e e43d ff45 adba f3f0 1e3e db22 ae3e
000000c0: 04e1 853d 5248 5f3e de6e 69be e8b2 053f
000000d0: 3588 a33e 5687 bbbd 18d1 903a 86d1 123e
000000e0: 4d84 99be ea33 113c 086f 79bd 6ecc 813e
000000f0: 4be2 22bf 364d cb3e 9498 a13d d732 c63d
00000100: d339 803e 910f 933e b30f 493e ff73 3abe
00000110: 35a2 b13e c40c 2c3e 4801 4b3e a0f4 43bc
00000120: 841e b03d 7c69 3c3e ff94 8c3e 9c56 3e3e
00000130: 8c22 f73d b53f 573e 302b 653e 6027 443e
00000140: 6e7d 3bbe 9cd7 6abc 7343 8e3e 4da0 183e
00000150: 0e86 593e 0d47 4f3e 9d3b 693d d4c1 5a3e
00000160: 0dd2 4e3e eb07 abbd 6596 0abe a8d1 0ebe
00000170: 18e2 c5be 9192 113e 29f3 2fbe 8166 033f
00000180: 0ac7 963e 776e 303c b77b ef3d 11bc 113e
00000190: 3169 85bd 289d abbd a7bd c13d 366c a8bd
000001a0: 5e50 2a3d e9bf 4a3e 5f7b 9f3d cdb5 b43e
000001b0: 9bee ca3d 801a 2fbd 9fe1 dc3d 9f4f d0bc
000001c0: 822f de3d 424b 763e c80d b6be b76f b73e
000001d0: b299 063f 2d11 02bc dd1b 783d bc81 863e
000001e0: 490e ddbe 37b3 bebe cbe9 903e 5fee 0c3e
000001f0: e872 0fbd 0bc3 993e cb59 d1be ab31 f8bb
00000200: ea02 bcbe f6b9 bf3d 0842 373e fad5 3ebe
00000210: 2163 b03e d51a 433e b649 5b3e 7381 a83d
00000220: ee63 cb3d 0e88 323e d6ed d03d 886e 6d3e
00000230: e803 2e3e e7a6 e2be 6c0c 55be 46fc 873e
00000240: 3779 c93e 8d0e a3be f460 8cbe 25ca 983d
00000250: b54e c43d e6c1 713e d61f 4dbe ef60 003e
00000260: 40ee ff3e 0a97 b4be 9db7 b0be b78c 4cbe
00000270: adc7 aebd 4250 513e 3750 6e3c d6aa ac3d
00000280: 5fee 11be ea0f b63d c338 ab3e bdcb 433e
00000290: a30e 0f3e 2e33 4ebe 45ea 193d eb58 813e
000002a0: 89e0 e23d a298 3c3e 3ae2 493e 30c0 6b3c
000002b0: 339e 62bc 9949 903d 6373 363e 8850 89ba
000002c0: d4fb 463e 0d6c 513e 6464 37be 5ee4 b93e
000002d0: a685 123f ad3a 0abe 2fa9 193e 463a 0a3f
000002e0: 4c02 e0ba 2b9b d7bd bd69 8f3e 87c9 b23d
000002f0: f73a e9be 0abf 623e 7961 88bd 6dd9 9fbe
00000300: 45b6 c6bd 1056 5c3e d62b 9d3e f81a 82be
00000310: 50ca c93d a4a1 3b3e 4692 0abd 017b 973e
00000320: c91c cf3d 0997 373e 0ff9 893e 8804 c53d
00000330: f90e 243e f5d7 bcbd b988 9f3e 7b35 91be
00000340: afab 843e cde5 683e ff39 0e3f 7a36 ec3d
00000350: 5625 a43c e8f3 893e ba11 76be 5b0e b03e
00000360: 970b 793e 238e 3ebe d1bc 58be ba82 b13c
00000370: 0f36 a73e 1f1b b53d 31b3 e0be 2eae de3e
00000380: 6aa7 483c 55ee 0c3e 642f a8b9 7c4e 473e
00000390: c45f 8fbe fd9e 1c3e f47a d03e 5270 f33d
000003a0: 0d28 0dbf 4412 473e 580c 573e 9e4d c8be
000003b0: 3e93 153e 7f79 7bbe a682 a03d 782f 823c
000003c0: a0cf 613e b527 2d3e 6ba9 653d e68b b43e
000003d0: 0291 41bd b1cc c33d de5f 7b3d 1f1a fb3e
000003e0: 08a2 7bbe 99f0 3abe 2320 793c 6946 213e
000003f0: 9c49 93be c1e6 573d e559 773d 81a4 0e3e
-0.2965217 0.31015548 0.13124153 -0.51852435 0.4282307 0.44367158 0.19104977 -0.01658352
0.14529347 0.17119788 0.042610228 0.27570918 0.15606637 -0.27435946 0.12822278 0.15970035
-0.18098752 -0.060708623 0.109803945 0.2604742 0.118170075 0.15306903 0.004429712 0.18479909
0.20222858 -0.039903656 -0.2216673 -0.276309 -0.2684194 0.11600454 -0.27715397 0.37095514
0.26017392 0.15141232 0.091216564 0.03229963 0.032947164 0.020261526 0.085907616 -0.0109125925
-0.20134972 0.19939826 0.09842094 0.08031042 0.11159917 -0.0013219713 0.15521602 0.34010968
0.06537059 0.21804932 -0.22796199 0.52226114 0.31939855 -0.09156673 0.0011048643 0.1433774
-0.2998375 0.008862475 -0.060896903 0.2535128 -0.63626546 0.39707345 0.0789043 0.09677666
0.25044116 0.28722814 0.19634895 -0.18208311 0.34694067 0.16801745 0.19824708 -0.011960179
0.085995704 0.18399614 0.27457425 0.18587726 0.12067136 0.21020396 0.22379756 0.19155645
-0.18309566 -0.014333632 0.27785835 0.149049 0.21242544 0.20241947 0.056941617 0.21363002
0.20197316 -0.083511196 -0.13533933 -0.13947165 -0.38649058 0.14216067 -0.17182602 0.51328284
0.2944873 0.010768524 0.116935186 0.14231898 -0.06514204 -0.083795846 0.094600014 -0.082237646
0.04158055 0.1979977 0.07787203 0.35294953 0.09908792 -0.04274988 0.10785221 -0.025428591
0.10848905 0.24052146 -0.3555739 0.3582742 0.5257827 -0.007938665 0.060573447 0.26270854
-0.4317496 -0.37246105 0.2830337 0.13762806 -0.035021693 0.30031618 -0.4088882 -0.0075742803
-0.36720973 0.09361641 0.17896283 -0.18636313 0.3445063 0.19053204 0.21414837 0.082278155
0.099311695 0.17434713 0.102016136 0.23186696 0.16993678 -0.4426796 -0.2080552 0.26559657
0.39350292 -0.3184704 -0.2741772 0.07460431 0.09585325 0.23609123 -0.20031676 0.12536977
0.49986458 -0.35271484 -0.34515086 -0.19975553 -0.08534179 0.20440772 0.014545492 0.08431022
-0.14251088 0.08889754 0.33441743 0.19120689 0.13970427 -0.20136711 0.037576932 0.25263152
0.11077983 0.184176 0.19715205 0.014389083 -0.013831663 0.07045288 0.17817454 -0.0010476271
0.19432002 0.20451374 -0.1790939 0.36307043 0.5723518 -0.13498946 0.15005945 0.5399517
-0.0017090528 -0.10527643 0.2801036 0.087298445 -0.455528 0.22143188 -0.066592164 -0.3122057
-0.09702734 0.21517205 0.30697507 -0.254112 0.09853041 0.1832338 -0.033830903 0.29586032
0.10112912 0.17928709 0.2694783 0.09620005 0.16021337 -0.09220878 0.31159 -0.28361115
0.25912234 0.22743912 0.55557245 0.11533828 0.020037334 0.26943898 -0.240302 0.34385952
0.24320827 -0.18608908 -0.21165778 0.02166878 0.3265843 0.088430636 -0.43886712 0.43492264
0.012246946 0.13762791 -0.00032078766 0.19463533 -0.2800275 0.15295024 0.40718806 0.11886658
-0.5513924 0.19440562 0.21000803 -0.39121717 0.1460695 -0.24558066 0.07837419 0.015891775
0.22051859 0.16909678 0.056069773 0.35262984 -0.04725743 0.09560526 0.061370723 0.49043366
-0.24573529 -0.18255843 0.015205416 0.15749516 -0.28767097 0.0527103 0.060388464 0.13929941

fc3.bias f4 [4]
00000000: ee50 943e 31a2 923e 734c 653e 09b4 403e
0.28967994 0.28639367 0.22392444 0.18818678
